2025-06-21_taller_entrenamiento_modelo_deep_learning_completo/modelo/modelo_mnist.pth (torch, 440593 bytes, 6 tensors)

1.weight f4 [128, 784]
0	0xbbacee61	-0.0052774404
1	0xbbd50a46	-0.006501469
2	0x3c03fc63	0.008055779
3	0xbc2cda89	-0.01055015
4	0x3d249b7b	0.04018734
5	0x3d085683	0.03328563
6	0x3d171b2b	0.036891144
7	0x3cb04565	0.021517465
8	0x3cc84635	0.02444754
9	0xbc8069f7	-0.015675528
10	0x3c53c497	0.012925289
11	0x3c29cd57	0.010363898
12	0xbcc7e1e1	-0.0243997
13	0x3d19f4ab	0.03758685
14	0xbb32dc30	-0.0027291887
15	0x3d2895c1	0.04115844
16	0x3cd84e9d	0.026404673
17	0xbb9dc6ce	-0.004814959
18	0x3b8d60a1	0.0043144976
19	0x3cac3c97	0.021024985
20	0xbbf8496b	-0.0075771115
21	0xbbb7866a	-0.00560074
22	0xbb8ef99a	-0.004363251
23	0xbb1203e7	-0.0022280158
24	0xbc614b32	-0.013750838
25	0xbc54f985	-0.012998943
26	0xbcbe6967	-0.02324362
27	0x3ac47c28	0.0014990615
28	0xbac35bfa	-0.001490473
29	0xbc4e953c	-0.012608822
30	0xba10ff8d	-0.0005531244
31	0xb95f90af	-0.00021320836
32	0xbc27eec9	-0.010249802
33	0xbbc8b13f	-0.006124645
34	0xbba57069	-0.0050488007
35	0xbc981e99	-0.018569278
36	0x3d14e403	0.03635026
37	0x3d031c6e	0.032009535
38	0x3d149eef	0.036284383
39	0x3c9c5e9f	0.019088088
40	0x3c3b903f	0.011447965
41	0x3829c12a	4.0472638e-05
42	0x3cdb7095	0.026787082
43	0x3c99889b	0.018741896
44	0xbaa52efa	-0.0012602501
45	0xbbba278e	-0.005680985
46	0xbbfeccdd	-0.0077758864
47	0x3cc59627	0.02411945
48	0xbc375505	-0.011189704
49	0x3cbd51e9	0.023110347
50	0x3d278177	0.04089495
51	0xbb943386	-0.0045227436
52	0x3d0a9c0a	0.033840217
53	0xbbbfc3bf	-0.005852192
54	0xbc8fef19	-0.017570065
55	0xbb07d81f	-0.0020728183
56	0xb8761ea8	-5.867952e-05
57	0x3cc5d187	0.024147762
58	0xbc7cba69	-0.015425303
59	0xbc812525	-0.015764782
60	0x3d019a40	0.031641245
61	0xbc5fcb24	-0.013659272
62	0x3d07928e	0.03309875
63	0x3c498c9f	0.012301593
64	0x3c22796b	0.009916644
65	0x3cf899b9	0.030346738
66	0xbcdb365a	-0.026759315
67	0x3c964ce2	0.018347207
68	0xbcac6ada	-0.021047045
69	0x3bbec739	0.005822089
70	0xb8aa5f82	-8.1240214e-05
71	0xbcaed343	-0.021340972
72	0x39e6068b	0.00043873893
73	0x3cbe9044	0.02326215
74	0xbb8e38ea	-0.004340281
75	0x3d0a83b9	0.033817027
76	0x3beb243a	0.0071759494
77	0x3cce341c	0.025171332
78	0xbce41a9f	-0.027844725
79	0xbbd1afe2	-0.0063991407
80	0xbca17b33	-0.019712066
81	0x3d19777b	0.03746746
82	0xbc1fe977	-0.009760252
83	0xbb5e409e	-0.0033913027
84	0xbcc45317	-0.023965402
85	0xbc8a97ae	-0.01691803
86	0xbc71d289	-0.014759668
87	0xbcc67303	-0.024224764
88	0xbca8c9d1	-0.020604046
89	0x3d09248b	0.033482116
90	0xbc841c35	-0.016126731
91	0x3c8f89a9	0.017521696
92	0xbcb5e3cc	-0.022203349
93	0x3cb6303d	0.022239799
94	0xbcaf2c28	-0.02138336
95	0xbc5faeac	-0.013652485
96	0x3d1bd37b	0.03804348
97	0xbc1c4897	-0.009538791
98	0xbc890cbd	-0.016729707
99	0x3ced3680	0.028956652
100	0xbb4d4b16	-0.0031325272
101	0xbcbe8dfc	-0.023261063
102	0xbbb1438c	-0.0054096635
103	0xbc3577e1	-0.011075945
104	0xbcbaeca9	-0.022817926
105	0xbc8c9564	-0.017161079
106	0x3c52feed	0.012878162
107	0xbb80b06a	-0.00392728
108	0x3c964a77	0.018346054
109	0x3c25435b	0.01008686
110	0x3d29797b	0.04137562
111	0xbc103193	-0.008800882
112	0xbab3075a	-0.0013658807
113	0x3c863354	0.016381897
114	0xbca87f41	-0.020568492
115	0xbce93ec2	-0.028472308
116	0x3b6beac1	0.0035998079
117	0xbc9409c3	-0.018071061
118	0x3bbb810c	0.0057221707
119	0x3c1fbcf6	0.009749642
120	0xbaf236a1	-0.0018479415
121	0x3cb319ff	0.021862982
122	0xbc1a6bd8	-0.009425126
123	0xbce77d66	-0.028258037
124	0xbc2f4ab2	-0.010698961
125	0xbcbecac7	-0.023290051
126	0x3a8f11aa	0.0010915298
127	0xbc984736	-0.018588644
128	0xbc95f004	-0.018302925
129	0x3d06e561	0.032933597
130	0xbc091811	-0.008367554
131	0xbcaf722d	-0.021416748
132	0x3cfce00e	0.030868556
133	0x3d1f2790	0.03885609
134	0x3cba5959	0.022747682
135	0x3ced3005	0.028953562
136	0xbcc41985	-0.02393795
137	0x3cb06503	0.021532541
138	0x3c91219b	0.01771622
139	0x3cc4df19	0.024032163
140	0x3cd1de45	0.025618682
141	0x3c5bce77	0.013415924
142	0x3d06e698	0.032934755
143	0x3bea71fa	0.0071547003
144	0xbcd7c283	-0.026337868
145	0x3c375d0b	0.011191617
146	0xbceda694	-0.029010095
147	0xbbd5579c	-0.006510688
148	0x3c95a643	0.018267756
149	0xbc92c372	-0.017915461
150	0xbcb59675	-0.02216647
151	0x3cf4343a	0.02981006
152	0xbcb5e127	-0.022202088
153	0x3d118342	0.035525568
154	0xbc0477db	-0.008085216
155	0xbc877e68	-0.016539767
156	0x3b396a34	0.0028292062
157	0xbb497edf	-0.0030745787
158	0xbc48495d	-0.012224522
159	0x3c585463	0.013203713
160	0xbc6c8fc7	-0.014438576
161	0x3c4d3b57	0.012526355
162	0xbbf20f59	-0.0073870835
163	0x3d015151	0.03157169
164	0xb986027d	-0.00025560326
165	0x3cad8409	0.021181123
166	0x3cd47795	0.025935927
167	0x3d1d9d4b	0.038480084
168	0x3c011df4	0.007880677
169	0x3c9eba47	0.019375933
170	0xbc5e983c	-0.0135861
171	0xbcce01be	-0.025147315
172	0x3b571791	0.0032820443
173	0x3c3a9413	0.011387843
174	0x3ca29356	0.019845646
175	0xbad7f3c9	-0.0016475852
176	0x3d235153	0.03987248
177	0x3ca60669	0.020266728
178	0xbce23304	-0.027612217
179	0x3ca07831	0.019588562
180	0x3c2a0eb4	0.010379482
181	0xbbb26657	-0.0054443288
182	0x3b49d990	0.0030799843
183	0xbba8c3e5	-0.0051503056
184	0xbb4aaebf	-0.003092691
185	0xbc73701d	-0.014858273
186	0xbca6d2b5	-0.020364145
187	0x3d246f5c	0.040145263
188	0xbc67f21a	-0.014156843
189	0x3c67e837	0.014154485
190	0x3b91a5ed	0.0044448287
191	0x3d226cd2	0.03965456
192	0xbca70b92	-0.02039126
193	0xbca7fbce	-0.020505812
194	0xbc956269	-0.018235402
195	0xbc90e409	-0.01768686
196	0xbbd82ef2	-0.006597393
197	0x3bbd043a	0.005768326
198	0xbc3ec4cf	-0.0116436025
199	0x3cc54be1	0.024084033
200	0xbc4b1612	-0.012395399
201	0x3c0f5a9a	0.008749628
202	0xbc3daae0	-0.011576384
203	0xbcb34b62	-0.021886531
204	0xbcb93bb1	-0.02261147
205	0xbcf461eb	-0.029831847
206	0xbcfd1668	-0.030894473
207	0x3bfafa7c	0.0076592546
208	0xbcae4a68	-0.021275714
209	0xbc51cd15	-0.012805243
210	0x3c94814c	0.01812806
211	0x3cc231ff	0.02370548
212	0x3ceaf252	0.02868
213	0xbc1ee4a1	-0.009698064
214	0xbba0a976	-0.004903014
215	0xbc777a9e	-0.015104918
216	0x3c237358	0.009976231
217	0xbc7228aa	-0.014780203
218	0xbcedbfa6	-0.02902205
219	0x3b09bada	0.0021015913
220	0x3cbc7dbc	0.023009174
221	0x3d16960a	0.036764182
222	0x3d0e4dbb	0.0347421
223	0xba90e1ab	-0.0011053582
224	0x3bba9faa	0.005695303
225	0x3d02e7fe	0.031959526
226	0x3cf713ef	0.030160872
227	0x3a918153	0.0011101164
228	0x3c83426f	0.016022889
229	0x3d1f7557	0.038930263
230	0x3cdb3432	0.026758287
231	0x3cb82c38	0.022482023
232	0xbbfdd95e	-0.0077468595
233	0x3a4ed3fa	0.00078898633
234	0xbc468aeb	-0.012118082
235	0xbcb4a59c	-0.022051625
236	0xbc8063e5	-0.015672633
237	0xbc863bb8	-0.016385898
238	0x3d01820f	0.031618174
239	0xbccefb25	-0.02526624
240	0x3cfd5033	0.030922031
241	0x3a3b7880	0.000715144
242	0xbbbba7c6	-0.0057267873
243	0x3cd2ccdf	0.025732456
244	0xbb625777	-0.0034536996
245	0xba924263	-0.0011158701
246	0x3d17ead1	0.037089173
247	0x3cf2fba7	0.029661013
248	0xbce27c75	-0.027647236
249	0x3d220e21	0.039564256
250	0xbc2ba1bd	-0.010475573
251	0x3c9d875f	0.019229589
252	0x3b05aaf0	0.0020396076
253	0x3c043cef	0.008071168
254	0xb8c9785c	-9.6068456e-05
255	0x3ccc8907	0.024967683

1.bias f4 [128]
0	0xbcd73367	-0.026269628
1	0xbbd72f71	-0.0065669348
2	0xbd11f28e	-0.03563171
3	0xbc95d3c9	-0.018289464
4	0x3c866985	0.016407738
5	0xbd14b04c	-0.036300942
6	0x3c1ea3c1	0.009682597
7	0xbd094ae8	-0.0335187
8	0x3c3df19e	0.011593251
9	0x3cdfe3cb	0.0273303
10	0x3c100843	0.008791032
11	0x3c301bf6	0.010748854
12	0x3cbc5e7f	0.022994278
13	0xbd2008ba	-0.039070822
14	0xbd15d3fc	-0.036579117
15	0xbcb34f2b	-0.021888336
16	0xbbfc94e2	-0.007708178
17	0xbca38c5b	-0.019964388
18	0xbc8b51a9	-0.017006712
19	0xbc7add61	-0.01531157
20	0x3b23acd7	0.0024974847
21	0xbd0db667	-0.03459778
22	0xbd1b1be9	-0.037868414
23	0xbd6b5f99	-0.057464216
24	0x3c709f81	0.014686466
25	0xbc16f4b7	-0.009213618
26	0x3c3c2643	0.011483732
27	0xbc391e05	-0.011298661
28	0xbd2b649d	-0.041844
29	0xbd254c56	-0.040356003
30	0xbcd2994e	-0.025707867
31	0xbd392252	-0.045198746
32	0x3c20bf7a	0.009811277
33	0xbc21585c	-0.009847727
34	0xbcf1e076	-0.029525977
35	0x3bf4388d	0.0074530304
36	0xbd12c196	-0.03582915
37	0xbd2b564f	-0.041830357
38	0xbd23f26c	-0.040026113
39	0x3bf71773	0.007540637
40	0xbc8854d6	-0.016642015
41	0xbbcdf57e	-0.0062853685
42	0x3c2f61c5	0.010704462
43	0xbc10d069	-0.008838751
44	0xbcbc798f	-0.023007182
45	0xbb9c1086	-0.004762712
46	0xbd15010d	-0.036377955
47	0xbc23071f	-0.009950428
48	0x3b9b1fa1	0.004733995
49	0xbd3bebdd	-0.045879234
50	0xbc7b5116	-0.015339157
51	0xbc4afc52	-0.012389259
52	0x3c218839	0.009859138
53	0xbbfd253a	-0.007725385
54	0xbb530e13	-0.0032204434
55	0xbd0bdfdb	-0.034149032
56	0xbc0b8d76	-0.008517614
57	0xbc6f02d6	-0.0145880785
58	0x3c051423	0.008122477
59	0xbd0468bc	-0.032326445
60	0x3c85d93e	0.01633894
61	0x3d1f2810	0.038856566
62	0xbc17b497	-0.009259365
63	0xbd1ca8a9	-0.038246784
64	0xbc43dcb2	-0.011954473
65	0xbd016c73	-0.031597566
66	0xbcd1c10c	-0.025604747
67	0xbca9af58	-0.020713493
68	0xbca9639f	-0.020677386
69	0xbca756ae	-0.020427074
70	0xbd0d8b5c	-0.03455673
71	0x3c8b8a1a	0.017033625
72	0x3c8152ab	0.01578649
73	0xbd14ef4f	-0.036361035
74	0xbc6e8a8e	-0.014559401
75	0xbca2e1bf	-0.019883035
76	0x3babad60	0.005239174
77	0xbd2751f0	-0.040849626
78	0xbcfc936e	-0.030832019
79	0x3ccf650b	0.025316736
80	0xbc2e8771	-0.010652409
81	0xbc08082b	-0.008302729
82	0xbcae3458	-0.021265194
83	0xbbbc2bf3	-0.005742544
84	0x3c1d343d	0.009594974
85	0xbd12d028	-0.035843045
86	0xbd0f2a75	-0.0349526
87	0xbca98774	-0.020694472
88	0xbd4f5a13	-0.05062301
89	0x3ba3ba61	0.0049965833
90	0xbd2625a3	-0.040563237
91	0xbcb8f953	-0.022579825
92	0xbc85e137	-0.016342742
93	0xbcc86877	-0.024463875
94	0xbadc2d18	-0.0016798107
95	0x3c34b26d	0.011028868
96	0xbced7ff2	-0.028991673
97	0xbcb73dcc	-0.022368334
98	0xbcd04221	-0.025422158
99	0x3cbfddb6	0.02342115
100	0xbc969c41	-0.018385055
101	0xbd2e7264	-0.04258956
102	0xbd054b4a	-0.032542504
103	0xbc96a3ab	-0.01838859
104	0xbbe89d38	-0.00709882
105	0xbc8da429	-0.017290192
106	0xbcc8c6dc	-0.024508886
107	0xbb968c21	-0.0045943414
108	0xbcb8a176	-0.022537928
109	0xbd2259be	-0.039636366
110	0x3ba0aba7	0.004903275
111	0xbc25f314	-0.010128755
112	0xbd2e569c	-0.042563066
113	0x3ce0b75e	0.027431186
114	0x3cae9479	0.021311032
115	0x3ccd691a	0.02507453
116	0xbcc23d34	-0.023710825
117	0xbc222006	-0.00989533
118	0x3c86478c	0.016391538
119	0xbd47d94b	-0.04879121
120	0xbb0118aa	-0.0019698539
121	0x3c968d1a	0.01837783
122	0xbd537baa	-0.051631607
123	0xbd29cab9	-0.041453097
124	0x3ce53cf9	0.027983176
125	0x3c5e5eac	0.013572376
126	0x3b54c8f1	0.0032468403
127	0x3d1b2a58	0.03788218

4.weight f4 [64, 128]
0	0x3d68c345	0.05682685
1	0x3d5f1d41	0.054471258
2	0x3de9906e	0.11404501
3	0x3b27294e	0.0025506797
4	0xbdbc527e	-0.09195422
5	0x3bbb4052	0.0057144547
6	0xbd575162	-0.052567847
7	0x3d38494a	0.04499177
8	0x3d7c2b0f	0.0615645
9	0x3d35a29e	0.044344537
10	0xbc984be2	-0.018590871
11	0x3cfbf9ae	0.030758705
12	0xbde05d0f	-0.109552495
13	0x3d8c4edc	0.06850979
14	0xbcf76e24	-0.030203886
15	0x3d93ad7a	0.072108224
16	0x3bc0c8d5	0.005883316
17	0x3d7844bb	0.06061242
18	0x3d89cb74	0.06728259
19	0xbcb8bf0a	-0.022552032
20	0xbd1bedd5	-0.03806861
21	0x3e44b0d7	0.19208084
22	0x3deca5ea	0.11555083
23	0x3bc11697	0.0058925855
24	0x3ce46828	0.027881697
25	0x3e1a8e07	0.15093242
26	0xbda10081	-0.07861424
27	0x3da89d4c	0.08233127
28	0xbd22a3f7	-0.03970715
29	0x3e5880f6	0.21142945
30	0xbd8ea08c	-0.06964216
31	0x3d0d59c4	0.034509435
32	0xbdace575	-0.08442203
33	0xbd62b904	-0.055352226
34	0x3da65726	0.08122091
35	0xbe77552b	-0.24153583
36	0xbc8a0a01	-0.016850473
37	0x3dd65f0c	0.104673475
38	0xbd50a036	-0.05093404
39	0xbc06bf12	-0.008224266
40	0x3d87e99e	0.06636356
41	0x3e2a9502	0.16658404
42	0x3d87c94e	0.06630193
43	0x3db75f6f	0.089537494
44	0xbde07f8e	-0.10961829
45	0x3d313a00	0.043268204
46	0xbd5dbae6	-0.05413332
47	0xbb83b2d3	-0.0040191202
48	0xbd9ef085	-0.07760719
49	0x3ea28c9b	0.31747898
50	0xbba85c9c	-0.005137993
51	0x3b729c20	0.0037019327
52	0x3d43b1ce	0.04777699
53	0xbc54301c	-0.012950923
54	0x3d42d265	0.04756393
55	0x3d013807	0.031547572
56	0x3da19439	0.07889599
57	0xbd42cadd	-0.047556747
58	0x3d814d5e	0.06313585
59	0xbb1360b7	-0.0022488066
60	0xbd94cf42	-0.07266094
61	0xbd915542	-0.0709634
62	0x3d9bc2c1	0.07605506
63	0xbd44bccd	-0.048031617
64	0xbcc518b6	-0.024059635
65	0xbdf4b2f6	-0.119481966
66	0xbd7f170b	-0.062277835
67	0xbd740d53	-0.05958302
68	0x3d10382d	0.035209823
69	0x3d03ce56	0.0321792
70	0xbd362c96	-0.044476114
71	0x3deaecab	0.11470922
72	0x3e13d5a8	0.14436972
73	0x3d8beb5f	0.06832003
74	0xbd9e8d49	-0.07741792
75	0x3d668237	0.056276526
76	0x3b89e8e1	0.0042086695
77	0xbdc82fda	-0.09774752
78	0xbe484edf	-0.19561337
79	0x3d380c7e	0.04493379
80	0xbd6fdcd5	-0.05856021
81	0x3e1e1d61	0.15440895
82	0x3be7ef61	0.0070780967
83	0xbe6bfba7	-0.23045217
84	0x3bb3e52f	0.0054899673
85	0xbd751fe1	-0.059844855
86	0x3d37112a	0.044694103
87	0x3baf1be3	0.0053439005
88	0x3d0b39cb	0.033990663
89	0xbd3cba02	-0.04607583
90	0xbc43c344	-0.01194841
91	0xbd8132dd	-0.063085295
92	0x3bb4f365	0.005522179
93	0xbc277949	-0.010221788
94	0x3b3edd46	0.0029123588
95	0x3df1ef23	0.1181319
96	0x3cb41514	0.021982707
97	0xbd296ac5	-0.04136159
98	0xbc477e93	-0.012176174
99	0xbdfd0217	-0.12353914
100	0xbdade2e5	-0.08490542
101	0x3e082052	0.13293579
102	0x3e09b688	0.13448536
103	0x3d545d49	0.051846776
104	0x3d8ccf4d	0.06875477
105	0xbd6886e4	-0.056769267
106	0x3c9c45d2	0.019076262
107	0xbe42a351	-0.19007613
108	0x3cb51140	0.022102952
109	0xbdc34406	-0.09534459
110	0xbca80883	-0.020511871
111	0xbd74d638	-0.059774607
112	0x3cb4c5b7	0.022066934
113	0x3d937421	0.07199884
114	0x3de7a29d	0.11310313
115	0xbd96bc21	-0.073601015
116	0x3d9a0c8c	0.075219244
117	0x3d87fb3d	0.06639717
118	0xbd5a5d06	-0.05331137
119	0x3e6c89e2	0.23099473
120	0x3cd99966	0.026562404
121	0xbcaa0d6b	-0.020758351
122	0x3da3cfc8	0.079986155
123	0x3ddb284b	0.10701045
124	0xbda570e5	-0.080781735
125	0x3e0407d1	0.12893607
126	0x3c012e66	0.007884597
127	0x3c25388d	0.010084284
128	0x3c4bc10a	0.012436161
129	0xbd911358	-0.07083768
130	0x3e4a377c	0.19747728
131	0xbdf886d4	-0.121350914
132	0xbc437fba	-0.011932308
133	0x3b4b545b	0.0031025622
134	0xbdb56178	-0.08856481
135	0x3d60853a	0.054814555
136	0x3ce34a24	0.027745314
137	0x3c421622	0.011846097
138	0xbe53efb3	-0.20696907
139	0x3d5de5b1	0.05417413
140	0x3df81f6b	0.121153675
141	0xbd30243e	-0.043003313
142	0xbcf445f1	-0.029818507
143	0xbcce4598	-0.02517967
144	0x3e22cd33	0.1589859
145	0xbd1924e5	-0.0373887
146	0x3d5924f1	0.053013746
147	0x3dbfb583	0.093607925
148	0xbc300def	-0.0107455095
149	0xbd03c771	-0.032172624
150	0x3cf76586	0.030199777
151	0x3d93d719	0.07218761
152	0x3c180f42	0.0092809815
153	0xbe31bef4	-0.17357999
154	0xbd8c6f7f	-0.06857204
155	0xbd216941	-0.03940702
156	0xbd0015ec	-0.031270906
157	0xbd20b65f	-0.039236423
158	0x3d9a8853	0.07545533
159	0x3e156425	0.14588983
160	0x3e29e76f	0.16592191
161	0x3c8cce2d	0.017188156
162	0x3b9daa46	0.004811558
163	0x3e016369	0.12635578
164	0xbd783204	-0.060594574
165	0x3dbcf4aa	0.092263535
166	0xbc75f9d1	-0.015013174
167	0xbca74a7d	-0.020421261
168	0xbda3e9f3	-0.08003607
169	0x3e24f1a1	0.16107799
170	0x3d28b239	0.04118559
171	0x3d49b0b2	0.049240775
172	0xbdc96e7f	-0.098355286
173	0xbe9835f4	-0.29728663
174	0x3d8b236c	0.067938656
175	0x3c9347e6	0.01797862
176	0x3c2bf748	0.010495968
177	0x3db31ebe	0.08746098
178	0x3b27b1f1	0.002558824
179	0x3c6b4024	0.014358554
180	0x3bce69f7	0.006299253
181	0x3d38c0ee	0.045105867
182	0xbc3b6c0a	-0.011439333
183	0xbcefd303	-0.029275423
184	0x3c3303e7	0.010926223
185	0xbd92a07b	-0.071595155
186	0x3caa0625	0.020754883
187	0x3d9acee0	0.075589895
188	0xbd7de508	-0.061986
189	0xbb9bf1bd	-0.004759042
190	0xbd3eb3c4	-0.046558157
191	0xbca84148	-0.020538941
192	0x3d5063e6	0.05087652
193	0x3e77f606	0.24214944
194	0xbd316d29	-0.043316994
195	0x3c15c8ee	0.009142144
196	0xbb1ca672	-0.002390292
197	0x3d30d44b	0.04317121
198	0xbd214cc5	-0.039379854
199	0x3e0e3442	0.13887122
200	0x3dd465c2	0.10370971
201	0xbd08424e	-0.033266358
202	0x3bff6d6e	0.0077950275
203	0xbdc36d24	-0.09542301
204	0xbcd82120	-0.026382983
205	0x3e0d500e	0.1380007
206	0xbdb489db	-0.08815356
207	0xbd5de57d	-0.054173935
208	0x3d9154be	0.070962414
209	0xbce907c6	-0.02844609
210	0x3d718a06	0.05896952
211	0x3d403ae8	0.046931177
212	0x3b972413	0.0046124547
213	0x3cd19b5d	0.025586778
214	0x3e088139	0.13330545
215	0x3a5c16ec	0.00083957496
216	0x3da7f681	0.08201314
217	0xbc0f8701	-0.008760215
218	0xbda19e5c	-0.07891533
219	0x3db690d5	0.08914343
220	0xbb6d378a	-0.0036196434
221	0x3ce83175	0.028343895
222	0x3dc088a7	0.09401064
223	0xbd8babd7	-0.06819885
224	0x3c25648f	0.010094776
225	0x3ceeefca	0.029167075
226	0x3c80af88	0.0157087
227	0xbc69fdf8	-0.014281742
228	0xbea9d09b	-0.33166966
229	0x3d89724a	0.06711252
230	0x3e96ea0c	0.2947544
231	0xbe6d2dc6	-0.23161992
232	0x3d24506a	0.04011575
233	0xbd0e00c2	-0.03466869
234	0xbc9f0f69	-0.019416528
235	0xbdac192a	-0.08403237
236	0xbdd6033b	-0.10449835
237	0x3d3d6e33	0.046247672
238	0x3dba9749	0.091108866
239	0xbb0de793	-0.0021652922
240	0x3d3b6aca	0.04575614
241	0x3b408355	0.0029375155
242	0x3e5f0a16	0.21781191
243	0xbd512baf	-0.05106705
244	0x3d4e49f2	0.05036349
245	0x3a01f2a6	0.0004957117
246	0xbda7fc3f	-0.08202409
247	0x3e31983e	0.17343232
248	0x3c726a3e	0.014795838
249	0xbd1922ce	-0.037386708
250	0xbe263a58	-0.16233194
251	0xbcc56443	-0.02409566
252	0xbcb432ee	-0.021996941
253	0x3dba28b8	0.09089798
254	0xbd5dc50b	-0.054142993
255	0xbe184255	-0.14869054

4.bias f4 [64]
0	0xbdfa5105	-0.122224845
1	0x3e79d1d3	0.24396448
2	0x3eb91cdf	0.3615484
3	0x3e2903ea	0.165054
4	0xbd2b1fb1	-0.04177827
5	0x3df93f0e	0.1217023
6	0x3e494c90	0.19658113
7	0x3e757ae8	0.23972666
8	0x3e1f8b74	0.15580541
9	0xbdd8328a	-0.105565146
10	0x3e55526b	0.20832221
11	0xbd3e596e	-0.046472006
12	0xbe6bb809	-0.23019423
13	0xbd3199ba	-0.043359496
14	0xbd7436ee	-0.059622698
15	0xbdc8fefb	-0.09814259
16	0x3d647200	0.05577278
17	0x3e04c2fb	0.12965004
18	0x3c13bb65	0.009016846
19	0xbe4df8ff	-0.20114516
20	0xbc9bd66f	-0.019023148
21	0xbe300c95	-0.171923
22	0x3e156492	0.14589146
23	0xbc97342c	-0.018457495
24	0x3c14c5be	0.009080349
25	0xbe1fa0cd	-0.15588684
26	0xbd28f1c2	-0.041246183
27	0x3e4cdc48	0.20005906
28	0xbcd87b4b	-0.026425978
29	0x3e00f1ab	0.12592189
30	0x3ddab8dc	0.106797904
31	0xbe235f36	-0.15954289
32	0xbe89acec	-0.2688974
33	0x3dff6007	0.12469488
34	0x3d2ec11b	0.04266463
35	0x3e1f6a01	0.15567781
36	0xbe3e57a2	-0.18588117
37	0xbd6812d7	-0.056658592
38	0xbea711d7	-0.32630798
39	0x3e27f3aa	0.16401544
40	0xbe1cfa1b	-0.15329783
41	0x3dcb52d5	0.09927908
42	0x3e593df2	0.21215037
43	0xbe2d7f3f	-0.16943072
44	0x3e8041b0	0.25050116
45	0x3d34a621	0.044103745
46	0x3d9f8292	0.07788576
47	0x3e4dba93	0.20090704
48	0xbdab6932	-0.08369674
49	0xbe762e2e	-0.24041054
50	0xbd13134d	-0.03590708
51	0x3eab1388	0.3341334
52	0xbdc3f525	-0.09568242
53	0x3e050bce	0.12992784
54	0x3db93834	0.09043923
55	0xbe0fbe4d	-0.14037438
56	0xbdcb7cd6	-0.0993592
57	0xbe03b7e0	-0.12863111
58	0xbe14abd6	-0.14518675
59	0xbdef88f9	-0.11696047
60	0xbd924b02	-0.07143213
61	0x3d8e09c3	0.06935456
62	0x3e22868d	0.1587164
63	0x3e71d3a4	0.2361589

6.weight f4 [10, 64]
0	0x3cfe2ce2	0.031027261
1	0xbebb411a	-0.36573106
2	0x3dfec0a4	0.12439087
3	0xbe7ca790	-0.24673295
4	0x3cb2c88c	0.021824144
5	0x3d9ef182	0.07760908
6	0xbe938898	-0.2881515
7	0x3d76ff1a	0.060301878
8	0x3d11012f	0.03540152
9	0xbe46a989	-0.1940061
10	0xbb8ccfbc	-0.004297225
11	0xbe3b4b83	-0.18290524
12	0xbeec727f	-0.46181104
13	0x3ea94ac4	0.33064854
14	0xbbbc19e3	-0.0057403906
15	0xbe88b43b	-0.26700005
16	0xbe1d9411	-0.15388514
17	0x3e60a566	0.21938094
18	0x3d376eb3	0.044783305
19	0xbd698626	-0.0570127
20	0x3e51cc48	0.20488083
21	0x3e24b974	0.1608637
22	0xbe0e242a	-0.13880983
23	0xbde55ff6	-0.11199944
24	0x3d9ae3ea	0.075630024
25	0xbc47db96	-0.012198349
26	0x3dca024c	0.09863719
27	0xbaaef54c	-0.0013348251
28	0x3dbdcdde	0.09267782
29	0x3d6bf73e	0.057608835
30	0xbe2f73e4	-0.17134053
31	0x3ca50f10	0.020148784
32	0xbdad2e96	-0.08456151
33	0x3d8fa57a	0.07013984
34	0xbe1e1fff	-0.15441893
35	0xbd83d68e	-0.064374074
36	0xbd019be7	-0.03164282
37	0x3e02ec87	0.1278554
38	0xbe5382b0	-0.20655322
39	0xbc9aa816	-0.018878978
40	0xbe22f74f	-0.15914653
41	0x3e1ff7fb	0.15621941
42	0x3dd7c1ca	0.10535009
43	0xbe8d4b67	-0.2759659
44	0x3e4891f1	0.19586922
45	0xbe44fd86	-0.19237337
46	0x3db1ef73	0.086882494
47	0xbc7165b1	-0.014733718
48	0xbdda29c7	-0.106525
49	0xbe7597d8	-0.23983705
50	0xbea9736c	-0.33095872
51	0x3df2039e	0.11817096
52	0xbd4fb8e8	-0.05071345
53	0xbd7f72d7	-0.06236538
54	0xbdf2126b	-0.11819919
55	0xbe606143	-0.21912102
56	0xbe2612e0	-0.16218138
57	0x3d17060f	0.036871012
58	0x3e480107	0.19531642
59	0x3dd27069	0.10275347
60	0xbe8ade76	-0.2712285
61	0x3d86c888	0.06581217
62	0xbe891edc	-0.26781356
63	0x3e221094	0.15826637
64	0xbebf1960	-0.37324047
65	0xbddaa281	-0.106755264
66	0xbe98265f	-0.29716775
67	0x3da2be8f	0.079465024
68	0x3e1614f4	0.1465643
69	0xbdfa4d97	-0.1222183
70	0x3da8da7d	0.08244798
71	0xbe242841	-0.1603098
72	0xbcd70452	-0.026247177
73	0x3e80e537	0.25174877
74	0x3e7c336e	0.24628994
75	0x3da4bbbc	0.0804362
76	0x3d2a95e1	0.041646842
77	0xbe8918df	-0.26776788
78	0x3e39f79c	0.18160862
79	0x3e5b78fe	0.21432874
80	0x3e4a02ad	0.19727583
81	0xbd5ae894	-0.05344446
82	0xbd7d50ef	-0.061844762
83	0x3e4af0e3	0.19818453
84	0x3e938a8c	0.2881664
85	0xbd9ed33e	-0.07755135
86	0xbd9cc900	-0.07655525
87	0xbe7e4e73	-0.24834614
88	0xbc0589dc	-0.008150544
89	0xbd48f35f	-0.04906022
90	0xbdd9fcda	-0.10643931
91	0xbe59e55d	-0.21278901
92	0xbdce320b	-0.10068139
93	0xbe3e49df	-0.18582867
94	0x3e191a7f	0.14951514
95	0xbba0ecbd	-0.004911034
96	0xbe610610	-0.21974969
97	0xbec2941d	-0.38003626
98	0xbe7c564f	-0.24642299
99	0x3cf0da62	0.029401008
100	0x3d984114	0.07434288
101	0xbd6a0ccc	-0.05714111
102	0x3c90a445	0.017656455
103	0xbbb09873	-0.005389267
104	0x3e5125e8	0.20424616
105	0xbe84b9f0	-0.2592311
106	0xbe957d72	-0.2919727
107	0x3dfadef3	0.122495554
108	0xbc9f4487	-0.019441856
109	0x3e701d92	0.2344878
110	0xbeaf8544	-0.3428136
111	0xbe4f51f2	-0.20246103
112	0xbe6b344f	-0.22969173
113	0x3d4bb442	0.049732454
114	0x3e1d6670	0.15371108
115	0x3cbde27d	0.023179287
116	0x3db7feb8	0.089841306
117	0xbe263da1	-0.16234447
118	0x3ce75ab5	0.028241495
119	0xbe4cdde4	-0.2000652
120	0xbd8a437a	-0.067511514
121	0x3e5391ec	0.20661134
122	0xbe0f9d67	-0.14024888
123	0x3e06afb3	0.13152961
124	0xbc32cdaa	-0.010913292
125	0x3e8991dd	0.26869097
126	0x3e53b694	0.20675117
127	0xbdcfbab2	-0.10143031
128	0xbe114de4	-0.14189869
129	0xbddd7ec5	-0.10815195
130	0xbe8feeb3	-0.281118
131	0xbe13cf38	-0.14434516
132	0xbdaabf8d	-0.08337317
133	0xbce4accd	-0.02791443
134	0x3d7db230	0.06193751
135	0xbdd282dd	-0.102788664
136	0x3bef7830	0.0073080286
137	0x3daad25c	0.08340904
138	0xbe862a7b	-0.26204285
139	0xbe20b961	-0.15695716
140	0x3c2d2886	0.010568744
141	0xbdad77ea	-0.084701374
142	0x3d98ac3d	0.07454727
143	0x3e505602	0.2034531
144	0xbbf48589	-0.0074622077
145	0x3d86646e	0.06562124
146	0x3c973641	0.018458487
147	0x3dc849b6	0.09779684
148	0xbe3458b5	-0.17611964
149	0x3d869a9b	0.065724574
150	0x3d686f7e	0.056746952
151	0x3e0a5144	0.13507563
152	0x3c6f039d	0.014588264
153	0x3dc7cf0f	0.0975629
154	0xbe005f59	-0.12536372
155	0x3e147552	0.14497879
156	0x3d980118	0.074220836
157	0xbe3dd3ba	-0.18537799
158	0x3c96962c	0.018382154
159	0x3e0ef6a4	0.13961273
160	0x3e3fcb0e	0.18729803
161	0xbe20d2da	-0.15705433
162	0x3cdd8800	0.027042389
163	0xbea6c4dd	-0.3257207
164	0x3e2b8f68	0.16753924
165	0x3cb5cd66	0.022192668
166	0x3e100e4d	0.14067955
167	0x3d5dafb2	0.054122634
168	0x3e1f28df	0.15542935
169	0xbe0bc559	-0.13649501
170	0xbe56b2b6	-0.2096661
171	0xba41e0c4	-0.00073958584
172	0xbdba1a1b	-0.090870105
173	0xbe40c10a	-0.18823639
174	0x3d6faae8	0.0585126
175	0x3def84c5	0.11695246
176	0xbc79f764	-0.015256736
177	0x3e4d4d13	0.20048933
178	0x3d207caf	0.039181408
179	0x3b4e0438	0.003143562
180	0xbdb21a1a	-0.08696385
181	0x3d3058ce	0.04305344
182	0x3e3ad7f3	0.1824644
183	0x3e95975d	0.29217044
184	0xbe80ddf1	-0.25169328
185	0xbdfb7e49	-0.12279946
186	0x3e3154e7	0.17317544
187	0x3e34545c	0.17610306
188	0x3c908f22	0.017646376
189	0xbea73b79	-0.32662562
190	0x3c827660	0.015925586
191	0x3dc390ba	0.09549089
192	0xbd4f2a3d	-0.05057739
193	0xbd0a1431	-0.033710662
194	0x3dafb07f	0.08578586
195	0x3ddf24be	0.1089568
196	0xbe2aa003	-0.16662602
197	0x3e0bb474	0.13643056
198	0xbb7a85e5	-0.003822678
199	0xbe2db66b	-0.16964118
200	0x3c28e7e1	0.0103091905
201	0xbe82b29d	-0.25526896
202	0xbe67ae0c	-0.22624987
203	0x3cf99883	0.030468231
204	0x3e158b08	0.14603817
205	0xbdf8b396	-0.12143628
206	0xbed040d0	-0.40674448
207	0xbe7975c3	-0.24361329
208	0x3dacb35e	0.08432649
209	0xbec25baf	-0.37960574
210	0xbb934c7a	-0.0044952007
211	0xbcdc41dc	-0.026886873
212	0xbdc0de5f	-0.09417414
213	0x3e1f6dbb	0.15569203
214	0xbc6edec4	-0.014579479
215	0x3dd15ea6	0.10223131
216	0xbe899e1a	-0.26878434
217	0x3db6ed63	0.08931997
218	0x3d9008ef	0.07032954
219	0xbd90d293	-0.07071414
220	0x3cb09dc2	0.0215596
221	0xbc46444f	-0.012101247
222	0x3dfcaa48	0.12337166
223	0x3e021ead	0.12707014
224	0xbe480ebf	-0.19536875
225	0xbe0c4b8d	-0.13700695
226	0xbe36fb14	-0.17869216
227	0x3db6ffcc	0.08935508
228	0x3ce3567a	0.027751196
229	0x3c192048	0.009346075
230	0x3d85c180	0.06531048
231	0x3d349403	0.044086467
232	0x3b952cb5	0.0045524486
233	0x3e3f009f	0.1865258
234	0xbe4ade8b	-0.19811456
235	0xbddfd25e	-0.10928796
236	0xbe28cec4	-0.16485125
237	0x3ddc526d	0.10757909
238	0x3e204507	0.15651332
239	0xbe198e96	-0.14995798
240	0x3e240924	0.16019112
241	0x3e2ea058	0.17053354
242	0x3e3e19f2	0.18564585
243	0xbcba97c3	-0.022777444
244	0xbe7cb411	-0.24678065
245	0x3dcff321	0.10153795
246	0xbc8ec6cf	-0.017428784
247	0x3d87539a	0.066077426
248	0x3e35926d	0.17731638
249	0x3c92b678	0.017909274
250	0x3d96d02b	0.07363924
251	0x3d85dd1d	0.06536315
252	0x3d08c55d	0.033391345
253	0xbd63b659	-0.055593822
254	0xbe24bfdb	-0.16088812
255	0xbd87078c	-0.06593236

6.bias f4 [10]
0	0xbcfedfba	-0.03111254
1	0xbdc4cfac	-0.09609923
2	0xbe97b203	-0.29628
3	0xbd93770c	-0.07200441
4	0x3e1b8427	0.15187131
5	0xbcd557c1	-0.02604282
6	0x3e5aaa11	0.21353938
7	0xbe51d85a	-0.20492688
8	0x3ed03fc4	0.4067365
9	0x3e2295c4	0.15877444
