2025-06-18_taller_calibracion_camaras/python/calibration_output/stereo_params.npz (npz, 3416 bytes, 11 tensors)

mtxL f8 [3, 3]
1358976.4448310372 0.0 319.6538269472249 0.0 1297780.025958932 239.06439808389868 0.0 0.0
1.0
00000000: 6572 e071 80bc 3441 0000 0000 0000 0000
00000010: 31b9 3e13 76fa 7340 0000 0000 0000 0000
00000020: 9c3e a506 74cd 3341 a308 928c 0fe2 6d40
00000030: 0000 0000 0000 0000 0000 0000 0000 0000
00000040: 0000 0000 0000 f03f

distL f8 [1, 5]
-0.00353656693173467 -2.0658573155496688e-10 -0.052823204691350524 -0.056430719052638974 -8.470005993025053e-18
00000000: 2836 fbe9 b7f8 6cbf 03c9 e8d8 9664 ecbd
00000010: 3510 3da1 a40b abbf 4146 a4b9 7ce4 acbf
00000020: d105 fe1d cf87 63bc

mtxR f8 [3, 3]
1941588.883689647 0.0 319.501600728215 0.0 2116585.028246202 239.49918418182352 0.0 0.0
1.0
00000000: 167c 39e2 54a0 3d41 0000 0000 0000 0000
00000010: 5535 7c8e 06f8 7340 0000 0000 0000 0000
00000020: 5192 9d83 f425 4041 9af3 1a51 f9ef 6d40
00000030: 0000 0000 0000 0000 0000 0000 0000 0000
00000040: 0000 0000 0000 f03f

distR f8 [1, 5]
0.04454088685471423 6.306451372730951e-10 0.05864500734471348 -0.08198721006506623 9.913646174830728e-18
00000000: 4e6d c028 10ce a63f 87d9 449a 36ab 053e
00000010: f40a 3de9 b706 ae3f 2e74 eb21 1dfd b4bf
00000020: ed0c 79da fbdb 663c

R f8 [3, 3]
0.9923311562585491 0.006890755878860302 -0.12341553306609711 -0.0558587507486714 0.9156787415948705 -0.39801035433268844 0.11026638782225869 0.40185191261788505
0.9090414534233182
00000000: aed5 dd44 2dc1 ef3f 5090 4f32 7b39 7c3f
00000010: e158 560e 2998 bfbf 3e69 52a7 8499 acbf
00000020: 5f5b 1981 3d4d ed3f 5b02 d56b 0079 d9bf
00000030: 6d6e 8b01 6b3a bc3f f1d8 a115 f1b7 d93f
00000040: ac2a 251a de16 ed3f

T f8 [3, 1]
2568.520603792391 8283.351351989177 24510.22827268351
00000000: fc8c 948c 0a11 a440 731b 1af9 ac2d c040
00000010: 9007 059c 8eef d740

R1 f8 [3, 3]
0.9823288226876744 -0.15041691634004434 -0.11137699670847476 0.18418894373125078 0.6712520774321674 0.7179798615213142 -0.033234276345568775 -0.7258067234613851
0.6870953958905813
00000000: 6993 ebda 3c6f ef3f 560b 398c dc40 c3bf
00000010: bebc 63ee 3383 bcbf 1225 ced8 8093 c73f
00000020: d92e fea2 e57a e53f fe75 0de7 b0f9 e63f
00000030: f458 0544 1504 a1bf 5d79 8f05 cf39 e7bf
00000040: 8ba1 d27b affc e53f

R2 f8 [3, 3]
0.9875046616132863 -0.1482760356041286 -0.05337378155566547 0.09879199436126043 0.3185992741696526 0.9427272375128954 -0.12277900937111927 -0.9362204440002865
0.32926675370245456
00000000: 00da 4860 a399 ef3f 40a2 d989 b5fa c2bf
00000010: 28a9 7dec ce53 abbf 0a63 e3a0 6e4a b93f
00000020: b8a1 c535 ee63 d43f 6a52 c54f d22a ee3f
00000030: 365d e2f5 716e bfbf 957d 9a93 84f5 edbf
00000040: edf9 b3dc b412 d53f

P1 f8 [3, 4]
1650282.6642603423 0.0 267828.23828125 0.0 0.0 1650282.6642603423 -3224463.4375 0.0
0.0 0.0 1.0 0.0
00000000: 3ef7 0caa 6a2e 3941 0000 0000 0000 0000
00000010: 0000 00f4 d058 1041 0000 0000 0000 0000
00000020: 0000 0000 0000 0000 3ef7 0caa 6a2e 3941
00000030: 0000 00b8 c799 48c1 0000 0000 0000 0000
00000040: 0000 0000 0000 0000 0000 0000 0000 0000
00000050: 0000 0000 0000 f03f 0000 0000 0000 0000

P2 f8 [3, 4]
1650282.6642603423 0.0 267828.23828125 0.0 0.0 1650282.6642603423 -3224463.4375 42906159073.313095
0.0 0.0 1.0 0.0
00000000: 3ef7 0caa 6a2e 3941 0000 0000 0000 0000
00000010: 0000 00f4 d058 1041 0000 0000 0000 0000
00000020: 0000 0000 0000 0000 3ef7 0caa 6a2e 3941
00000030: 0000 00b8 c799 48c1 4ea0 c20f d0fa 2342
00000040: 0000 0000 0000 0000 0000 0000 0000 0000
00000050: 0000 0000 0000 f03f 0000 0000 0000 0000

Q f8 [4, 4]
1.0 0.0 0.0 -267828.23828125 0.0 1.0 0.0 3224463.4375
0.0 0.0 0.0 1650282.6642603423 0.0 0.0 -3.846260536722781e-05 0.0
00000000: 0000 0000 0000 f03f 0000 0000 0000 0000
00000010: 0000 0000 0000 0000 0000 00f4 d058 10c1
00000020: 0000 0000 0000 0000 0000 0000 0000 f03f
00000030: 0000 0000 0000 0000 0000 00b8 c799 4841
00000040: 0000 0000 0000 0000 0000 0000 0000 0000
00000050: 0000 0000 0000 0000 3ef7 0caa 6a2e 3941
00000060: 0000 0000 0000 0000 0000 0000 0000 0000
00000070: d6c5 af0e 5d2a 04bf 0000 0000 0000 0000
